…
al_crossentropy', metrics=['accuracy']) <p><code>model.summary()</code> is used to see all parameters and shapes in each layers in our models. You can observe that total parameters are 276, 138 and total trainable parameters are 276, 138. Non-trainable parameter is 0.</p> In\u00a0[12]: Copied! <pre>model1.summary()\n</pre> model1.summary() <pre>Model: \"sequential\"\n_________________________________________________________________\n Layer (type)                Output Shape              Param #   \n=================================================================\n conv2d (Conv2D)             (None, 32, 32, 32)        896       \n                                                                 \n conv2d_1 (Conv2D)           (None, 30, 30, 32)        9248      \n                                                                 \n max_pooling2d (MaxPooling2D  (None, 15, 15, 32)       0         \n )                                                               \n                                                                 \n dropout (Dropout)           (None, 15, 15, 32)        0         \n                                                                 \n conv2d_2 (Conv2D)           (None, 15, 15, 64)        18496     \n                                                                 \n conv2d_3 (Conv2D)           (None, 13, 13, 64)        36928     \n                                                                 \n max_pooling2d_1 (MaxPooling  (None, 6, 6, 64)         0         \n 2D)                                                             \n                                                                 \n dropout_1 (Dropout)         (None, 6, 6, 64)          0         \n                                                                 \n conv2d_4 (Conv2D)           (None, 6, 6, 64)          36928     \n                                                                 \n conv2d_5 (Conv2D)           (None, 4, 4, 64)          36928     \n                                                                 \n max_pooling2d_2 (MaxPooling  (None, 2, 2, 64)         0         \n 2D)                                                             \n                                                                 \n dropout_2 (Dropout)         (None, 2, 2, 64)          0         \n                                                                 \n flatten (Flatten)           (None, 256)               0         \n                                                                 \n dense (Dense)               (None, 512)               131584    \n                                                                 \n dropout_3 (Dropout)         (None, 512)               0         \n                                                                 \n dense_1 (Dense)             (None, 10)                5130      \n                                                                 \n=================================================================\nTotal params: 276,138\nTrainable params: 276,138\nNon-trainable params: 0\n_________________________________________________________________\n</pre> In\u00a0[13]: Copied! <pre>history = model1.fit(train_data, \n                     train_labels_one_hot, \n  
…
